GaligoolAngel/model.model (torch, 6093 bytes, 12 tensors)

gates.hyper_dense_layers.0.weight f4 [20, 1]
0.48091277 -0.9395358 -0.10315334 -0.89822435 -0.38695213 0.6120714 -0.7067539 0.20645674
-0.867011 0.9539672 0.99118197 -0.9754685 -0.46328008 0.6587881 0.9538863 -0.5409303
-1.0159494 -0.16358924 0.81179595 -0.5234739
00000000: 333a f63e 6b85 70bf 0f42 d3bd 08f2 65bf
00000010: 971e c6be b6b0 1c3f d3ed 34bf 6569 533e
00000020: 6ff4 5dbf 3237 743f 1abe 7d3f 4eb8 79bf
00000030: 0c33 edbe 56a6 283f e431 743f 687a 0abf
00000040: a10a 82bf f083 27be dcd1 4f3f 6302 06bf

gates.hyper_dense_layers.0.bias f4 [20]
-0.4393399 -0.37207088 0.6487787 -0.01696448 0.76108295 0.23770313 -0.5938265 0.58624583
0.41309303 0.67298627 -0.49716815 0.42705253 0.49835598 0.39501068 0.017219242 0.3213677
0.051781762 -0.3124169 0.5747725 0.3355091
00000000: 29f1 e0be 1380 bebe 5c16 263f 18f9 8abc
00000010: 55d6 423f 7368 733e 0305 18bf 3514 163f
00000020: ee80 d33e d448 2c3f d38c febe a1a6 da3e
00000030: 8428 ff3e d73e ca3e 5e0f 8d3c 4f8a a43e
00000040: 1d19 543d 1cf5 9fbe 4a24 133f d9c7 ab3e

gates.hyper_dense_layers.2.weight f4 [2, 20]
-0.11971848 0.14968848 0.016987031 0.029405497 0.19709276 -0.17582144 -0.047676194 -0.060936183
0.19401285 0.19200695 0.12897004 0.24694349 -0.13420245 -0.09045632 0.012525947 0.08877452
0.13260992 -0.095938295 0.03650871 0.08935379 0.013922583 -0.16100793 0.04121049 0.02119079
-0.06754889 0.026579188 0.17038107 0.07226641 0.014814287 0.030463785 0.15352204 0.13287129
0.16523623 0.11820037 -0.16303113 -0.09153706 -0.030052472 -0.1539759 -0.06906271 0.21382715
00000000: f62e f5bd f047 193e 6328 8b3c cce3 f03c
00000010: afd2 493e 890a 34be 1d48 43bd 3898 79bd
00000020: 4eab 463e 789d 443e b910 043e c1de 7c3e
00000030: 5e6c 09be 2a41 b9bd a139 4d3c 6acf b53d
00000040: e5ca 073e 4c7b c4bd 288a 153d 1fff b63d
00000050: 8c1b 643c 43df 24be 55cc 283d 4f98 ad3c
00000060: 1357 8abd 99bc d93c 6078 2e3e 6900 943d
00000070: a0b7 723c 308f f93c e234 1d3e 690f 083e
00000080: b033 293e 0913 f23d a2f1 26be c877 bbbd
00000090: 9a30 f6bc dcab 1dbe c070 8dbd 81f5 5a3e

gates.hyper_dense_layers.2.bias f4 [2]
-0.19437186 0.042005338
00000000: 6b09 47be ca0d 2c3d

gates.hyper_dense_layers.4.weight f4 [8, 2]
0.05126931 0.044779863 -0.12178766 0.6098333 0.64684236 -0.25077227 -0.20267005 0.60232323
-0.62242764 -0.33382148 0.07758441 0.108248554 0.6260322 0.5108792 0.057454083 0.3404768
00000000: c5ff 513d 176b 373d cf6b f9bd 091e 1c3f
00000010: 7697 253f 3965 80be bd88 4fbe db31 1a3f
00000020: 6b57 1fbf a6ea aabe 93e4 9e3d 6bb1 dd3d
00000030: a543 203f fbc8 023f f954 6b3d fa52 ae3e

gates.hyper_dense_layers.4.bias f4 [8]
-0.4046981 -0.36378193 -0.349109 0.2918711 0.5732152 -0.52205604 0.2734448 -0.60492235
00000000: 9734 cfbe a041 babe 6abe b2be 2170 953e
00000010: 3bbe 123f 77a5 05bf f500 8c3e 31dc 1abf

dense_layers.0.weight f4 [10, 8]
-0.097919606 0.17481697 0.20808968 0.3134234 -0.19059786 -0.09941973 0.02733252 0.10786847
-0.31995496 0.14918949 0.38420552 0.13745978 0.028986339 -0.20088835 0.11349072 0.25517175
-0.023174005 0.011610366 -0.042516317 -0.12641233 0.12214753 0.10135922 0.14680697 0.07862735
0.1289678 -0.117466815 -0.27470374 0.13480037 0.29129332 0.2502813 0.006551912 0.088708475
-0.29037505 0.1351158 -0.21391168 -0.09288696 0.2055091 0.3347854 -0.2108511 -0.2606947
-0.30990174 0.10207871 -0.22887547 0.3422494 0.1903186 0.27704385 -0.13058653 0.29305425
0.1671658 0.1589049 0.20668629 0.019384472 0.26210713 0.3255957 0.24676849 -0.1549707
-0.28188547 -0.076327644 0.05913851 -0.36470556 -0.07050408 0.11250493 -0.21586046 -0.31298068
-0.13134494 0.34450927 -0.037456095 -0.1294637 -0.23067442 -0.26282322 0.062706694 0.13859622
0.24649589 0.1613106 0.0951084 0.15213877 0.19960023 -0.009865146 0.25645685 -0.21920264
00000000: 138a c8bd 3803 333e 7615 553e 0879 a03e
00000010: 162c 43be 929c cbbd 73e8 df3c 25ea dc3d
00000020: 23d1 a3be 21c5 183e 96b6 c43e 42c2 0c3e
00000030: c274 ed3c adb5 4dbe d36d e83d dfa5 823e
00000040: 69d7 bdbc 6839 3e3c 9725 2ebd 3c72 01be
00000050: 7c28 fa3d 6c95 cf3d 9154 163e 6007 a13d
00000060: 2310 043e 7192 f0bd f8a5 8cbe 1c09 0a3e
00000070: 6624 953e df24 803e 6cb1 d63b caac b53d
00000080: 0aac 94be cc5b 0a3e aa0b 5bbe 853b bebd
00000090: fa70 523e fe68 ab3e 5ae9 57be c779 85be
000000a0: 71ab 9ebe a50e d13d 555e 6abe 503b af3e
000000b0: e1e2 423e b1d8 8d3e 7ab8 05be 350b 963e
000000c0: 832d 2b3e f7b7 223e 92a5 533e 2fcc 9e3c
000000d0: e832 863e 7bb4 a63e e1b0 7c3e a4b0 1ebe
000000e0: 4b53 90be ab51 9cbd 393b 723d b0ba babe
000000f0: 7164 90bd fc68 e63d 860a 5dbe 013f a0be
00000100: 4a7f 06be 8563 b03e 906b 19bd 2292 04be
00000110: ea35 6cbe c490 86be 5e6c 803d 2bec 0d3e
00000120: 6b69 7c3e 9b2e 253e 31c8 c23d 44ca 1b3e
00000130: 0164 4c3e 6ca1 21bc 504e 833e a876 60be

dense_layers.0.bias f4 [10]
0.06650124 -0.27985984 -0.03791944 0.118104324 -0.29378122 -0.29937768 -0.19666713 0.26124674
0.13441712 -0.121449985
00000000: cd31 883d ca49 8fbe 6a51 1bbd aee0 f13d
00000010: 7e6a 96be 0848 99be 1c63 49be 22c2 853e
00000020: a4a4 093e c5ba f8bd

dense_layers.2.weight f4 [10, 10]
-0.19836897 -0.23353833 0.28907296 -0.19232723 -0.29233617 -0.2034529 0.15839002 -0.2912
-0.12364858 0.26956427 -0.122855924 0.35850236 -0.087756716 -0.054209583 -0.07112947 0.09320114
0.011416846 -0.3436855 -0.12617087 0.062378597 0.19103666 -0.23318449 -0.1282035 0.07760125
-0.2186919 -0.24517952 -0.09277988 -0.1884385 -0.11728476 0.20354468 -0.2108925 0.19544666
0.26435015 0.103940964 0.052635692 -0.11235025 0.047434974 0.02876219 -0.22163114 -0.18169627
0.16572528 0.14911202 -0.26825982 0.061399072 0.0020609314 -0.061161753 0.27843702 0.07514635
0.20224969 0.048548114 -0.06027413 -0.029384717 0.038698316 0.1761755 -0.24163726 -0.276815
-0.04428317 0.16293627 -0.14774397 0.24663778 0.10593418 0.075688146 0.10614829 -0.16586772
0.16980529 -0.1919683 0.26423606 -0.29054877 -0.23815507 -0.27973136 0.30587122 -0.10789922
-0.035641138 -0.2764022 0.16909844 -0.1258626 0.08475387 0.1795833 -0.021053722 -0.24731132
0.1308211 -0.21696448 -0.145933 0.20676331 0.25818238 0.13454598 -0.14749603 -0.09450312
-0.065925054 -0.15324427 0.0926767 -0.13051268 -0.26174504 0.16405952 -0.28934988 0.12662037
0.33327362 -0.115090266 0.24524528 0.19504678
00000000: 3c21 4bbe ac24 6fbe 5f01 943e 6ef1 44be
00000010: 16ad 95be f555 50be fe30 223e 2b18 95be
00000020: 773b fdbd 5404 8a3e e39b fbbd 9f8d b73e
00000030: cbb9 b3bd de0a 5ebd 54ac 91bd 3de0 be3d
00000040: b90d 3b3c 8cf7 afbe f032 01be b380 7f3d
00000050: 1d9f 433e eac7 6ebe c747 03be 67ed 9e3d
00000060: c5f0 5fbe 5710 7bbe 6103 bebd 06f6 40be
00000070: fe32 f0bd 046e 503e 34f4 57be 2b23 483e
00000080: e758 873e 00df d43d 8698 573d e317 e6bd
00000090: 2d4b 423d af9e eb3c 46f3 62be 960e 3abe
000000a0: e3b3 293e d2b0 183e 5a59 89be 987d 7b3d
000000b0: b110 073b bf84 7abd 4c8f 8e3e 54e6 993d
000000c0: 8b1a 4f3e 63da 463d 02e2 76bd 38b8 f0bc
000000d0: 2082 1e3d 5a67 343e c26f 77be b2ba 8dbe
000000e0: 4562 35bd c4d8 263e 324a 17be 9d8e 7c3e
000000f0: 05f4 d83d 6302 9b3d 4664 d93d 3ad9 29be
00000100: 70e1 2d3e 5793 44be f349 873e cfc2 94be
00000110: ecde 73be f338 8fbe 279b 9c3e 44fa dcbd
00000120: 71fc 11bd 9784 8dbe 2428 2d3e 20e2 00be
00000130: 7093 ad3d afe4 373e db78 acbc 2e3f 7dbe
00000140: f7f5 053e f02b 5ebe 766f 15be c3b9 533e
00000150: 7b30 843e 6cc6 093e 3309 17be da8a c1bd
00000160: b703 87bd 11ec 1cbe 48cd bd3d 1ea5 05be
00000170: 7203 86be 38ff 273e ab25 94be c5a8 013e
00000180: d7a2 aa3e 72b4 ebbd 9421 7b3e 58ba 473e

dense_layers.2.bias f4 [10]
-0.16879228 0.20422062 0.08953334 -0.19896981 0.2129624 0.10316162 -0.18472405 -0.15131612
0.014114073 0.16468576
00000000: e2d7 2cbe 361f 513e 415d b73d bebe 4bbe
00000010: d112 5a3e 6646 d33d 4d28 3dbe 9df2 1abe
00000020: b63e 673c 62a3 283e

dense_layers.4.weight f4 [4, 10]
0.058655918 0.36801693 0.15491028 -0.04240904 0.26194575 -0.26116684 -0.12437737 -0.13439046
0.055017896 -0.014863902 0.26565725 0.16313273 -0.2350967 -0.2001098 0.10708049 0.17265724
-0.2591219 -0.31940937 -0.031301424 0.23654754 0.057970308 0.16989781 -0.10083757 -0.045143224
-0.029322166 -0.12154842 0.074392825 -0.2859726 0.27524772 0.12658393 0.15365835 0.04935597
-0.16565205 -0.16976094 -0.15283091 -0.077971995 -0.29792506 0.07400413 -0.27473563 -0.10254749
00000000: 3041 703d b76c bc3e cda0 1e3e 1ab5 2dbd
00000010: c11d 863e a9b7 85be 90b9 febd a79d 09be
00000020: 725a 613d b987 73bc 3a04 883e 440c 273e
00000030: 30bd 70be 95e9 4cbe 044d db3d 0fcd 303e
00000040: a0ab 84be a089 a3be ec35 00bd 8539 723e
00000050: 4672 6d3d b1f9 2d3e ee83 cebd 1ae8 38bd
00000060: 0a35 f0bc 61ee f8bd 445b 983d 006b 92be
00000070: 45ed 8c3e 389f 013e 9d58 1d3e 7c29 4a3d
00000080: b1a0 29be d0d5 2dbe b57f 1cbe c8af 9fbd
00000090: a289 98be 7a8f 973d 26aa 8cbe 6b04 d2bd

dense_layers.4.bias f4 [4]
-0.031055652 -0.13751268 -0.14940676 -0.23613785
00000000: 6c68 febc 20d0 0cbe 16fe 18be 1fce 71be
